…
2023-03-24 20:31:26.950517: I tensorflow/compiler/mlir/mlir_graph_optimization_pass.cc:185] None of the MLIR Optimization Passes are enabled (registered 2)
Assistance model is all set.
 state_shape =  (16,)  action_space =  42
Model: "model_1"
_________________________________________________________________
Layer (type)                 Output Shape              Param #   
=================================================================
input_2 (InputLayer)         [(None, 16)]              0         
_________________________________________________________________
reshape (Reshape)            (None, 1, 4, 4, 1)        0         
_________________________________________________________________
conv2d (Conv2D)              (None, 1, 3, 3, 32)       160       
_________________________________________________________________
flatten (Flatten)            (None, 288)               0         
_________________________________________________________________
dense_3 (Dense)              (None, 420)               121380    
_________________________________________________________________
dense_4 (Dense)              (None, 210)               88410     
_________________________________________________________________
dense_5 (Dense)              (None, 42)                8862      
=================================================================
Total params: 218,812
Trainable params: 218,812
Non-trainable params: 0
_________________________________________________________________
weights Loaded!!

running reward: -1.00 at game 10 (1) , epsilon = 0.750 , memory = 294, actions = 294 , 2023-03-24 20:31:07.712964
total_draws: 0, total_wins: 0, total_loss: 10, loss_ = 0.00000
…
